…
          (_norm): GroupNorm(num_groups=32, num_channels=256, epsilon=1e-05)
          (_act): Activation(
            (act_func): ReLU()
          )
        )
      )
      (mask_features): ConvNormAct(
        (_conv): Conv2D(256, 256, kernel_size=[3, 3], padding=1, data_format=NCHW)
      )
    )
    (predictor): TransformerPredictor(
      (pe_layer): PositionEmbeddingSine()
      (transformer): Transformer(
        (encoder): TransformerEncoder(
          (layers): LayerList()
        )
        (decoder): TransformerDecoder(
          (decoder_list): LayerList(
            (0): DecoderLayer(
              (self_attn): MultiHeadAttention(
                (q_proj): Linear(in_features=256, out_features=256, dtype=float32)
                (k_proj): Linear(in_features=256, out_features=256, dtype=float32)
                (v_proj): Linear(in_features=256, out_features=256, dtype=float32)
                (out_proj): Linear(in_features=256, out_features=256, dtype=float32)
              )
              (multihead_attn): MultiHeadAttention(
                (q_proj): Linear(in_features=256, out_features=256, dtype=float32)
                (k_proj): Linear(in_features=256, out_features=256, dtype=float32)
                (v_proj): Linear(in_features=256, out_features=256, dtype=float32)
                (out_proj): Linear(in_features=256, out_features=256, dtype=float32)
              )
              (linear1): Linear(in_features=256, out_features=2048, dtype=float32)
              (dropout): Dropout(p=0.1, axis=None, mode=upscale_in_train)
              (linear2): Linear(in_features=2048, out_features=256, dtype=float32)
              (norm1): LayerNorm(normalized_shape=[256], epsilon=1e-05)
              (norm2): LayerNorm(normalized_shape=[256], epsilon=1e-05)
              (norm3): LayerNorm(normalized_shape=[256], epsilon=1e-05)
              (dropout1): Dropout(p=0.1, axis=None, mode=upscale_in_train)
              (dropout2): Dropout(p=0.1, axis=None, mode=upscale_in_train)
              (dropout3): Dropout(p=0.1, axis=None, mode=upscale_in_train)
              (activation): ReLU()
            )
            (1): DecoderLayer(
              (self_attn): MultiHeadAttention(
                (q_proj): Linear(in_features=256, out_features=256, dtype=float32)
                (k_proj): Linear(in_features=256, out_features=256, dtype=float32)
                (v_proj): Linear(in_features=256, out_features=256, dtype=float32)
                (out_proj): Linear(in_features=256, out_features=256, dtype=float32)
              )
              (multihead_attn): MultiHeadAttention(
                (q_proj): Linear(in_features=256, out_features=256, dtype=float32)
                (k_proj): Linear(in_features=256, out_features=256, dtype=float32)
                (v_proj): Linear(in_features=256, out_features=256, dtype=float32)
                (out_proj): Linear(in_features=256, out_features=256, dtype=float32)
              )
              (linear1): Linear(in_features=256, out_features=2048, dtype=float32)
              (dropout): Dropout(p=0.1, axis=None, mode=upscale_in_train)
              (linear2): Linear(in_features=2048, out_features=256, dtype=float32)
              (norm1): LayerNorm(normalized_shape=[256], epsilon=1e-05)
              (norm2): LayerNorm(normalized_shape=[256], epsilon=1e-05)
              (norm3): LayerNorm(normalized_shape=[256], epsilon=1e-05)
              (dropout1): Dropout(p=0.1, axis=None, mode=upscale_in_train)
              (dropout2): Dropout(p=0.1, axis=None, mode=upscale_in_train)
              (dropout3): Dropout(p=0.1, axis=None, mode=upscale_in_train)
              (activation): ReLU()
            )
            (2): DecoderLayer(
              (self_attn): MultiHeadAttention(
                (q_proj): Linear(in_features=256, out_features=256, dtype=float32)
                (k_proj): Linear(in_features=256, out_features=256, dtype=float32)
                (v_proj): Linear(in_features=256, out_features=256, dtype=float32)
                (out_proj): Linear(in_features=256, out_features=256, dtype=float32)
              )
              (multihead_attn): MultiHeadAttention(
                (q_proj): Linear(in_features=256, out_features=256, dtype=float32)
                (k_proj): Linear(in_features=256, out_features=256, dtype=float32)
                (v_proj): Linear(in_features=256, out_features=256, dtype=float32)
                (out_proj): Linear(in_features=256, out_features=256, dtype=float32)
              )
              (linear1): Linear(in_features=256, out_features=2048, dtype=float32)
              (dropout): Dropout(p=0.1, axis=None, mode=upscale_in_train)
              (linear2): Linear(in_features=2048, out_features=256, dtype=float32)
              (norm1): LayerNorm(normalized_shape=[256], epsilon=1e-05)
              (norm2): LayerNorm(normalized_shape=[256], epsilon=1e-05)
              (norm3): LayerNorm(normalized_shape=[256], epsilon=1e-05)
              (dropout1): Dropout(p=0.1, axis=None, mode=upscale_in_train)
              (dropout2): Dropout(p=0.1, axis=None, mode=upscale_in_train)
              (dropout3): Dropout(p=0.1, axis=None, mode=upscale_in_train)
              (activation): ReLU()
            )
            (3): DecoderLayer(
              (self_attn): MultiHeadAttention(
                (q_proj): Linear(in_features=256, out_features=256, dtype=float32)
                (k_proj): Linear(in_features=256, out_features=256, dtype=float32)
                (v_proj): Linear(in_features=256, out_features=256, dtype=float32)
                (out_proj): Linear(in_features=256, out_features=256, dtype=float32)
              )
              (multihead_attn): MultiHeadAttention(
                (q_proj): Linear(in_features=256, out_features=256, dtype=float32)
                (k_proj): Linear(in_features=256, out_features=256, dtype=float32)
                (v_proj): Linear(in_features=256, out_features=256, dtype=float32)
                (out_proj): Linear(in_features=256, out_features=256, dtype=float32)
              )
              (linear1): Linear(in_features=256, out_features=2048, dtype=float32)
              (dropout): Dropout(p=0.1, axis=None, mode=upscale_in_train)
              (linear2): Linear(in_features=2048, out_features=256, dtype=float32)
              (norm1): LayerNorm(normalized_shape=[256], epsilon=1e-05)
              (norm2): LayerNorm(normalized_shape=[256], epsilon=1e-05)
              (norm3): LayerNorm(normalized_shape=[256], epsilon=1e-05)
              (dropout1): Dropout(p=0.1, axis=None, mode=upscale_in_train)
              (dropout2): Dropout(p=0.1, axis=None, mode=upscale_in_train)
              (dropout3): Dropout(p=0.1, axis=None, mode=upscale_in_train)
              (activation): ReLU()
            )
            (4): DecoderLayer(
              (self_attn): MultiHeadAttention(
                (q_proj): Linear(in_features=256, out_features=256, dtype=float32)
                (k_proj): Linear(in_features=256, out_features=256, dtype=float32)
                (v_proj): Linear(in_features=256, out_features=256, dtype=float32)
                (out_proj): Linear(in_features=256, out_features=256, dtype=float32)
              )
              (multihead_attn): MultiHeadAttention(
                (q_proj): Linear(in_features=256, out_features=256, dtype=float32)
                (k_proj): Linear(in_features=256, out_features=256, dtype=float32)
                (v_proj): Linear(in_features=256, out_features=256, dtype=float32)
                (out_proj): Linear(in_features=256, out_features=256, dtype=float32)
              )
              (linear1): Linear(in_features=256, out_features=2048, dtype=float32)
              (dropout): Dropout(p=0.1, axis=None, mode=upscale_in_train)
              (linear2): Linear(in_features=2048, out_features=256, dtype=float32)
              (norm1): LayerNorm(normalized_shape=[256], epsilon=1e-05)
              (norm2): LayerNorm(normalized_shape=[256], epsilon=1e-05)
              (norm3): LayerNorm(normalized_shape=[256], epsilon=1e-05)
              (dropout1): Dropout(p=0.1, axis=None, mode=upscale_in_train)
              (dropout2): Dropout(p=0.1, axis=None, mode=upscale_in_train)
              (dropout3): Dropout(p=0.1, axis=None, mode=upscale_in_train)
              (activation): ReLU()
            )
            (5): DecoderLayer(
              (self_attn): MultiHeadAttention(
                (q_proj): Linear(in_features=256, out_features=256, dtype=float32)
                (k_proj): Linear(in_features=256, out_features=256, dtype=float32)
                (v_proj): Linear(in_features=256, out_features=256, dtype=float32)
                (out_proj): Linear(in_features=256, out_features=256, dtype=float32)
              )
              (multihead_attn): MultiHeadAttention(
                (q_proj): Linear(in_features=256, out_features=256, dtype=float32)
                (k_proj): Linear(in_features=256, out_features=256, dtype=float32)
                (v_proj): Linear(in_features=256, out_features=256, dtype=float32)
                (out_proj): Linear(in_features=256, out_features=256, dtype=float32)
              )
              (linear1): Linear(in_features=256, out_features=2048, dtype=float32)
              (dropout): Dropout(p=0.1, axis=None, mode=upscale_in_train)
              (linear2): Linear(in_features=2048, out_features=256, dtype=float32)
              (norm1): LayerNorm(normalized_shape=[256], epsilon=1e-05)
              (norm2): LayerNorm(normalized_shape=[256], epsilon=1e-05)
              (norm3): LayerNorm(normalized_shape=[256], epsilon=1e-05)
              (dropout1): Dropout(p=0.1, axis=None, mode=upscale_in_train)
              (dropout2): Dropout(p=0.1, axis=None, mode=upscale_in_train)
              (dropout3): Dropout(p=0.1, axis=None, mode=upscale_in_train)
              (activation): ReLU()
            )
          )
          (norm): LayerNorm(normalized_shape=[256], epsilon=1e-05)
        )
      )
      (query_embed): Embedding(100, 256, sparse=False)
      (input_proj): Conv2D(1024, 256, kernel_size=[1, 1], data_format=NCHW)
      (class_embed): Linear(in_features=256, out_features=20, dtype=float32)
      (mask_embed): MLP(
        (layers): LayerList(
          (0): Linear(in_features=256, out_features=256, dtype=float32)
          (1): Linear(in_features=256, out_features=256, dtype=float32)
          (2): Linear(in_features=256, out_features=256, dtype=float32)
        )
      )
    )
  )
)
[07/30 13:04:44 ufo]: Model:
MultiTaskBatchFuse(
  (backbone): SwinTransformer_small_patch4_window7_224_maskformer(
    (patch_embed): PatchEmbed(
      (proj): Conv2D(3, 96, kernel_size=[4, 4], stride=[4, 4], data_format=NCHW)
      (norm): LayerNorm(normalized_shape=[96], epsilon=1e-05)
    )
    (pos_drop): Dropout(p=0.0, axis=None, mode=upscale_in_train)
    (layers): LayerList(
      (0): BasicLayer(
        (blocks): LayerList(
          (0): SwinTransformerBlock(
            (norm1): LayerNorm(normalized_shape=[96], epsilon=1e-05)
            (attn): WindowAttention(
              (qkv): Linear(in_features=96, out_features=288, dtype=float32)
              (attn_drop): Dropout(p=0.0, axis=None, mode=upscale_in_train)
              (proj): Linear(in_features=96, out_features=96, dtype=float32)
              (proj_drop): Dropout(p=0.0, axis=None, mode=upscale_in_train)
              (softmax): Softmax(axis=-1)
            )
            (drop_path): Identity()
            (norm2): LayerNorm(normalized_shape=[96], epsilon=1e-05)
            (mlp): Mlp(
              (fc1): Linear(in_features=96, out_features=384, dtype=float32)
              (act): GELU(approximate=False)
              (fc2): Linear(in_features=384, out_features=96, dtype=float32)
              (drop): Dropout(p=0.0, axis=None, mode=upscale_in_train)
            )
          )
          (1): SwinTransformerBlock(
            (norm1): LayerNorm(normalized_shape=[96], epsilon=1e-05)
            (attn): WindowAttention(
              (qkv): Linear(in_features=96, out_features=288, dtype=float32)
              (attn_drop): Dropout(p=0.0, axis=None, mode=upscale_in_train)
              (proj): Linear(in_features=96, out_features=96, dtype=float32)
              (proj_drop): Dropout(p=0.0, axis=None, mode=upscale_in_train)
              (softmax): Softmax(axis=-1)
            )
            (drop_path): DropPath()
            (norm2): LayerNorm(normalized_shape=[96], epsilon=1e-05)
            (mlp): Mlp(
              (fc1): Linear(in_features=96, out_features=384, dtype=float32)
              (act): GELU(approximate=False)
              (fc2): Linear(in_features=384, out_features=96, dtype=float32)
              (drop): Dropout(p=0.0, axis=None, mode=upscale_in_train)
            )
          )
        )
        (downsample): PatchMerging(
          (reduction): Linear(in_features=384, out_features=192, dtype=float32)
          (norm): LayerNorm(normalized_shape=[384], epsilon=1e-05)
        )
      )
      (1): BasicLayer(
        (blocks): LayerList(
          (0): SwinTransformerBlock(
            (norm1): LayerNorm(normalized_shape=[192], epsilon=1e-05)
            (attn): WindowAttention(
              (qkv): Linear(in_features=192, out_features=576, dtype=float32)
              (attn_drop): Dropout(p=0.0, axis=None, mode=upscale_in_train)
              (proj): Linear(in_features=192, out_features=192, dtype=float32)
              (proj_drop): Dropout(p=0.0, axis=None, mode=upscale_in_train)
              (softmax): Softmax(axis=-1)
            )
            (drop_path): DropPath()
            (norm2): LayerNorm(normalized_shape=[192], epsilon=1e-05)
            (mlp): Mlp(
              (fc1): Linear(in_features=192, out_features=768, dtype=float32)
              (act): GELU(approximate=False)
              (fc2): Linear(in_features=768, out_features=192, dtype=float32)
              (drop): Dropout(p=0.0, axis=None, mode=upscale_in_train)
            )
          )
          (1): SwinTransformerBlock(
            (norm1): LayerNorm(normalized_shape=[192], epsilon=1e-05)
            (attn): WindowAttention(
              (qkv): Linear(in_features=192, out_features=576, dtype=float32)
              (attn_drop): Dropout(p=0.0, axis=None, mode=upscale_in_train)
              (proj): Linear(in_features=192, out_features=192, dtype=float32)
              (proj_drop): Dropout(p=0.0, axis=None, mode=upscale_in_train)
              (softmax): Softmax(axis=-1)
            )
            (drop_path): DropPath()
            (norm2): LayerNorm(normalized_shape=[192], epsilon=1e-05)
            (mlp): Mlp(
              (fc1): Linear(in_features=192, out_features=768, dtype=float32)
              (act): GELU(approximate=False)
              (fc2): Linear(in_features=768, out_features=192, dtype=float32)
              (drop): Dropout(p=0.0, axis=None, mode=upscale_in_train)
            )
          )
        )
        (downsample): PatchMerging(
          (reduction): Linear(in_features=768, out_features=384, dtype=float32)
          (norm): LayerNorm(normalized_shape=[768], epsilon=1e-05)
        )
      )
      (2): BasicLayer(
        (blocks): LayerList(
          (0): SwinTransformerBlock(
            (norm1): LayerNorm(normalized_shape=[384], epsilon=1e-05)
            (attn): WindowAttention(
              (qkv): Linear(in_features=384, out_features=1152, dtype=float32)
              (attn_drop): Dropout(p=0.0, axis=None, mode=upscale_in_train)
              (proj): Linear(in_features=384, out_features=384, dtype=float32)
              (proj_drop): Dropout(p=0.0, axis=None, mode=upscale_in_train)
              (softmax): Softmax(axis=-1)
            )
            (drop_path): DropPath()
            (norm2): LayerNorm(normalized_shape=[384], epsilon=1e-05)
            (mlp): Mlp(
              (fc1): Linear(in_features=384, out_features=1536, dtype=float32)
              (act): GELU(approximate=False)
              (fc2): Linear(in_features=1536, out_features=384, dtype=float32)
              (drop): Dropout(p=0.0, axis=None, mode=upscale_in_train)
            )
          )
          (1): SwinTransformerBlock(
            (norm1): LayerNorm(normalized_shape=[384], epsilon=1e-05)
            (attn): WindowAttention(
              (qkv): Linear(in_features=384, out_features=1152, dtype=float32)
              (attn_drop): Dropout(p=0.0, axis=None, mode=upscale_in_train)
              (proj): Linear(in_features=384, out_features=384, dtype=float32)
              (proj_drop): Dropout(p=0.0, axis=None, mode=upscale_in_train)
              (softmax): Softmax(axis=-1)
            )
            (drop_path): DropPath()
            (norm2): LayerNorm(normalized_shape=[384], epsilon=1e-05)
            (mlp): Mlp(
              (fc1): Linear(in_features=384, out_features=1536, dtype=float32)
              (act): GELU(approximate=False)
              (fc2): Linear(in_features=1536, out_features=384, dtype=float32)
              (drop): Dropout(p=0.0, axis=None, mode=upscale_in_train)
            )
          )
          (2): SwinTransformerBlock(
            (norm1): LayerNorm(normalized_shape=[384], epsilon=1e-05)
            (attn): WindowAttention(
              (qkv): Linear(in_features=384, out_features=1152, dtype=float32)
              (attn_drop): Dropout(p=0.0, axis=None, mode=upscale_in_train)
              (proj): Linear(in_features=384, out_features=384, dtype=float32)
              (proj_drop): Dropout(p=0.0, axis=None, mode=upscale_in_train)
              (softmax): Softmax(axis=-1)
            )
            (drop_path): DropPath()
            (norm2): LayerNorm(normalized_shape=[384], epsilon=1e-05)
            (mlp): Mlp(
              (fc1): Linear(in_features=384, out_features=1536, dtype=float32)
              (act): GELU(approximate=False)
              (fc2): Linear(in_features=1536, out_features=384, dtype=float32)
              (drop): Dropout(p=0.0, axis=None, mode=upscale_in_train)
            )
          )
          (3): SwinTransformerBlock(
            (norm1): LayerNorm(normalized_shape=[384], epsilon=1e-05)
            (attn): WindowAttention(
              (qkv): Linear(in_features=384, out_features=1152, dtype=float32)
              (attn_drop): Dropout(p=0.0, axis=None, mode=upscale_in_train)
              (proj): Linear(in_features=384, out_features=384, dtype=float32)
              (proj_drop): Dropout(p=0.0, axis=None, mode=upscale_in_train)
              (softmax): Softmax(axis=-1)
            )
            (drop_path): DropPath()
            (norm2): LayerNorm(normalized_shape=[384], epsilon=1e-05)
            (mlp): Mlp(
              (fc1): Linear(in_features=384, out_features=1536, dtype=float32)
              (act): GELU(approximate=False)
              (fc2): Linear(in_features=1536, out_features=384, dtype=float32)
              (drop): Dropout(p=0.0, axis=None, mode=upscale_in_train)
            )
          )
          (4): SwinTransformerBlock(
            (norm1): LayerNorm(normalized_shape=[384], epsilon=1e-05)
            (attn): WindowAttention(
              (qkv): Linear(in_features=384, out_features=1152, dtype=float32)
              (attn_drop): Dropout(p=0.0, axis=None, mode=upscale_in_train)
              (proj): Linear(in_features=384, out_features=384, dtype=float32)
              (proj_drop): Dropout(p=0.0, axis=None, mode=upscale_in_train)
              (softmax): Softmax(axis=-1)
            )
            (drop_path): DropPath()
            (norm2): LayerNorm(normalized_shape=[384], epsilon=1e-05)
            (mlp): Mlp(
              (fc1): Linear(in_features=384, out_features=1536, dtype=float32)
              (act): GELU(approximate=False)
              (fc2): Linear(in_features=1536, out_features=384, dtype=float32)
              (drop): Dropout(p=0.0, axis=None, mode=upscale_in_train)
            )
          )
          (5): SwinTransformerBlock(
            (norm1): LayerNorm(normalized_shape=[384], epsilon=1e-05)
            (attn): WindowAttention(
              (qkv): Linear(in_features=384, out_features=1152, dtype=float32)
              (attn_drop): Dropout(p=0.0, axis=None, mode=upscale_in_train)
              (proj): Linear(in_features=384, out_features=384, dtype=float32)
              (proj_drop): Dropout(p=0.0, axis=None, mode=upscale_in_train)
              (softmax): Softmax(axis=-1)
            )
            (drop_path): DropPath()
            (norm2): LayerNorm(normalized_shape=[384], epsilon=1e-05)
            (mlp): Mlp(
              (fc1): Linear(in_features=384, out_features=1536, dtype=float32)
              (act): GELU(approximate=False)
              (fc2): Linear(in_features=1536, out_features=384, dtype=float32)
              (drop): Dropout(p=0.0, axis=None, mode=upscale_in_train)
            )
          )
          (6): SwinTransformerBlock(
            (norm1): LayerNorm(normalized_shape=[384], epsilon=1e-05)
            (attn): WindowAttention(
              (qkv): Linear(in_features=384, out_features=1152, dtype=float32)
              (attn_drop): Dropout(p=0.0, axis=None, mode=upscale_in_train)
              (proj): Linear(in_features=384, out_features=384, dtype=float32)
              (proj_drop): Dropout(p=0.0, axis=None, mode=upscale_in_train)
              (softmax): Softmax(axis=-1)
            )
            (drop_path): DropPath()
            (norm2): LayerNorm(normalized_shape=[384], epsilon=1e-05)
            (mlp): Mlp(
              (fc1): Linear(in_features=384, out_features=1536, dtype=float32)
              (act): GELU(approximate=False)
              (fc2): Linear(in_features=1536, out_features=384, dtype=float32)
              (drop): Dropout(p=0.0, axis=None, mode=upscale_in_train)
            )
          )
          (7): SwinTransformerBlock(
            (norm1): LayerNorm(normalized_shape=[384], epsilon=1e-05)
            (attn): WindowAttention(
              (qkv): Linear(in_features=384, out_features=1152, dtype=float32)
              (attn_drop): Dropout(p=0.0, axis=None, mode=upscale_in_train)
              (proj): Linear(in_features=384, out_features=384, dtype=float32)
              (proj_drop): Dropout(p=0.0, axis=None, mode=upscale_in_train)
              (softmax): Softmax(axis=-1)
            )
            (drop_path): DropPath()
            (norm2): LayerNorm(normalized_shape=[384], epsilon=1e-05)
            (mlp): Mlp(
              (fc1): Linear(in_features=384, out_features=1536, dtype=float32)
              (act): GELU(approximate=False)
              (fc2): Linear(in_features=1536, out_features=384, dtype=float32)
              (drop): Dropout(p=0.0, axis=None, mode=upscale_in_train)
            )
          )
          (8): SwinTransformerBlock(
            (norm1): LayerNorm(normalized_shape=[384], epsilon=1e-05)
            (attn): WindowAttention(
              (qkv): Linear(in_features=384, out_features=1152, dtype=float32)
              (attn_drop): Dropout(p=0.0, axis=None, mode=upscale_in_train)
              (proj): Linear(in_features=384, out_features=384, dtype=float32)
              (proj_drop): Dropout(p=0.0, axis=None, mode=upscale_in_train)
              (softmax): Softmax(axis=-1)
            )
            (drop_path): DropPath()
            (norm2): LayerNorm(normalized_shape=[384], epsilon=1e-05)
            (mlp): Mlp(
              (fc1): Linear(in_features=384, out_features=1536, dtype=float32)
              (act): GELU(approximate=False)
              (fc2): Linear(in_features=1536, out_features=384, dtype=float32)
              (drop): Dropout(p=0.0, axis=None, mode=upscale_in_train)
            )
          )
          (9): SwinTransformerBlock(
            (norm1): LayerNorm(normalized_shape=[384], epsilon=1e-05)
            (attn): WindowAttention(
              (qkv): Linear(in_features=384, out_features=1152, dtype=float32)
              (attn_drop): Dropout(p=0.0, axis=None, mode=upscale_in_train)
              (proj): Linear(in_features=384, out_features=384, dtype=float32)
              (proj_drop): Dropout(p=0.0, axis=None, mode=upscale_in_train)
              (softmax): Softmax(axis=-1)
            )
            (drop_path): DropPath()
            (norm2): LayerNorm(normalized_shape=[384], epsilon=1e-05)
            (mlp): Mlp(
              (fc1): Linear(in_features=384, out_features=1536, dtype=float32)
              (act): GELU(approximate=False)
              (fc2): Linear(in_features=1536, out_features=384, dtype=float32)
              (drop): Dropout(p=0.0, axis=None, mode=upscale_in_train)
            )
          )
          (10): SwinTransformerBlock(
            (norm1): LayerNorm(normalized_shape=[384], epsilon=1e-05)
            (attn): WindowAttention(
              (qkv): Linear(in_features=384, out_features=1152, dtype=float32)
              (attn_drop): Dropout(p=0.0, axis=None, mode=upscale_in_train)
              (proj): Linear(in_features=384, out_features=384, dtype=float32)
              (proj_drop): Dropout(p=0.0, axis=None, mode=upscale_in_train)
              (softmax): Softmax(axis=-1)
            )
            (drop_path): DropPath()
            (norm2): LayerNorm(normalized_shape=[384], epsilon=1e-05)
            (mlp): Mlp(
              (fc1): Linear(in_features=384, out_features=1536, dtype=float32)
              (act): GELU(approximate=False)
              (fc2): Linear(in_features=1536, out_features=384, dtype=float32)
              (drop): Dropout(p=0.0, axis=None, mode=upscale_in_train)
            )
          )
          (11): SwinTransformerBlock(
            (norm1): LayerNorm(normalized_shape=[384], epsilon=1e-05)
            (attn): WindowAttention(
              (qkv): Linear(in_features=384, out_features=1152, dtype=float32)
              (attn_drop): Dropout(p=0.0, axis=None, mode=upscale_in_train)
              (proj): Linear(in_features=384, out_features=384, dtype=float32)
              (proj_drop): Dropout(p=0.0, axis=None, mode=upscale_in_train)
              (softmax): Softmax(axis=-1)
            )
            (drop_path): DropPath()
            (norm2): LayerNorm(normalized_shape=[384], epsilon=1e-05)
            (mlp): Mlp(
              (fc1): Linear(in_features=384, out_features=1536, dtype=float32)
              (act): GELU(approximate=False)
              (fc2): Linear(in_features=1536, out_features=384, dtype=float32)
              (drop): Dropout(p=0.0, axis=None, mode=upscale_in_train)
            )
          )
          (12): SwinTransformerBlock(
            (norm1): LayerNorm(normalized_shape=[384], epsilon=1e-05)
            (attn): WindowAttention(
              (qkv): Linear(in_features=384, out_features=1152, dtype=float32)
              (attn_drop): Dropout(p=0.0, axis=None, mode=upscale_in_train)
              (proj): Linear(in_features=384, out_features=384, dtype=float32)
              (proj_drop): Dropout(p=0.0, axis=None, mode=upscale_in_train)
              (softmax): Softmax(axis=-1)
            )
            (drop_path): DropPath()
            (norm2): LayerNorm(normalized_shape=[384], epsilon=1e-05)
            (mlp): Mlp(
              (fc1): Linear(in_features=384, out_features=1536, dtype=float32)
              (act): GELU(approximate=False)
              (fc2): Linear(in_features=1536, out_features=384, dtype=float32)
              (drop): Dropout(p=0.0, axis=None, mode=upscale_in_train)
            )
          )
          (13): SwinTransformerBlock(
            (norm1): LayerNorm(normalized_shape=[384], epsilon=1e-05)
            (attn): WindowAttention(
              (qkv): Linear(in_features=384, out_features=1152, dtype=float32)
              (attn_drop): Dropout(p=0.0, axis=None, mode=upscale_in_train)
              (proj): Linear(in_features=384, out_features=384, dtype=float32)
              (proj_drop): Dropout(p=0.0, axis=None, mode=upscale_in_train)
              (softmax): Softmax(axis=-1)
            )
            (drop_path): DropPath()
            (norm2): LayerNorm(normalized_shape=[384], epsilon=1e-05)
            (mlp): Mlp(
              (fc1): Linear(in_features=384, out_features=1536, dtype=float32)
              (act): GELU(approximate=False)
              (fc2): Linear(in_features=1536, out_features=384, dtype=float32)
              (drop): Dropout(p=0.0, axis=None, mode=upscale_in_train)
            )
          )
          (14): SwinTransformerBlock(
            (norm1): LayerNorm(normalized_shape=[384], epsilon=1e-05)
            (attn): WindowAttention(
              (qkv): Linear(in_features=384, out_features=1152, dtype=float32)
              (attn_drop): Dropout(p=0.0, axis=None, mode=upscale_in_train)
              (proj): Linear(in_features=384, out_features=384, dtype=float32)
              (proj_drop): Dropout(p=0.0, axis=None, mode=upscale_in_train)
              (softmax): Softmax(axis=-1)
            )
            (drop_path): DropPath()
            (norm2): LayerNorm(normalized_shape=[384], epsilon=1e-05)
            (mlp): Mlp(
              (fc1): Linear(in_features=384, out_features=1536, dtype=float32)
              (act): GELU(approximate=False)
              (fc2): Linear(in_features=1536, out_features=384, dtype=float32)
              (drop): Dropout(p=0.0, axis=None, mode=upscale_in_train)
            )
          )
          (15): SwinTransformerBlock(
            (norm1): LayerNorm(normalized_shape=[384], epsilon=1e-05)
            (attn): WindowAttention(
              (qkv): Linear(in_features=384, out_features=1152, dtype=float32)
              (attn_drop): Dropout(p=0.0, axis=None, mode=upscale_in_train)
              (proj): Linear(in_features=384, out_features=384, dtype=float32)
              (proj_drop): Dropout(p=0.0, axis=None, mode=upscale_in_train)
              (softmax): Softmax(axis=-1)
            )
            (drop_path): DropPath()
            (norm2): LayerNorm(normalized_shape=[384], epsilon=1e-05)
            (mlp): Mlp(
              (fc1): Linear(in_features=384, out_features=1536, dtype=float32)
              (act): GELU(approximate=False)
              (fc2): Linear(in_features=1536, out_features=384, dtype=float32)
              (drop): Dropout(p=0.0, axis=None, mode=upscale_in_train)
            )
          )
          (16): SwinTransformerBlock(
            (norm1): LayerNorm(normalized_shape=[384], epsilon=1e-05)
            (attn): WindowAttention(
              (qkv): Linear(in_features=384, out_features=1152, dtype=float32)
              (attn_drop): Dropout(p=0.0, axis=None, mode=upscale_in_train)
              (proj): Linear(in_features=384, out_features=384, dtype=float32)
              (proj_drop): Dropout(p=0.0, axis=None, mode=upscale_in_train)
              (softmax): Softmax(axis=-1)
            )
            (drop_path): DropPath()
            (norm2): LayerNorm(normalized_shape=[384], epsilon=1e-05)
            (mlp): Mlp(
              (fc1): Linear(in_features=384, out_features=1536, dtype=float32)
              (act): GELU(approximate=False)
              (fc2): Linear(in_features=1536, out_features=384, dtype=float32)
              (drop): Dropout(p=0.0, axis=None, mode=upscale_in_train)
            )
          )
          (17): SwinTransformerBlock(
            (norm1): LayerNorm(normalized_shape=[384], epsilon=1e-05)
            (attn): WindowAttention(
              (qkv): Linear(in_features=384, out_features=1152, dtype=float32)
              (attn_drop): Dropout(p=0.0, axis=None, mode=upscale_in_train)
              (proj): Linear(in_features=384, out_features=384, dtype=float32)
              (proj_drop): Dropout(p=0.0, axis=None, mode=upscale_in_train)
              (softmax): Softmax(axis=-1)
            )
            (drop_path): DropPath()
            (norm2): LayerNorm(normalized_shape=[384], epsilon=1e-05)
            (mlp): Mlp(
              (fc1): Linear(in_features=384, out_features=1536, dtype=float32)
              (act): GELU(approximate=False)
              (fc2): Linear(in_features=1536, out_features=384, dtype=float32)
              (drop): Dropout(p=0.0, axis=None, mode=upscale_in_train)
            )
          )
        )
        (downsample): PatchMerging(
          (reduction): Linear(in_features=1536, out_features=768, dtype=float32)
          (norm): LayerNorm(normalized_shape=[1536], epsilon=1e-05)
        )
      )
      (3): BasicLayer(
        (blocks): LayerList(
          (0): SwinTransformerBlock(
            (norm1): LayerNorm(normalized_shape=[768], epsilon=1e-05)
            (attn): WindowAttention(
              (qkv): Linear(in_features=768, out_features=2304, dtype=float32)
              (attn_drop): Dropout(p=0.0, axis=None, mode=upscale_in_train)
              (proj): Linear(in_features=768, out_features=768, dtype=float32)
              (proj_drop): Dropout(p=0.0, axis=None, mode=upscale_in_train)
              (softmax): Softmax(axis=-1)
            )
            (drop_path): DropPath()
            (norm2): LayerNorm(normalized_shape=[768], epsilon=1e-05)
            (mlp): Mlp(
              (fc1): Linear(in_features=768, out_features=3072, dtype=float32)
              (act): GELU(approximate=False)
              (fc2): Linear(in_features=3072, out_features=768, dtype=float32)
              (drop): Dropout(p=0.0, axis=None, mode=upscale_in_train)
            )
          )
          (1): SwinTransformerBlock(
            (norm1): LayerNorm(normalized_shape=[768], epsilon=1e-05)
            (attn): WindowAttention(
              (qkv): Linear(in_features=768, out_features=2304, dtype=float32)
              (attn_drop): Dropout(p=0.0, axis=None, mode=upscale_in_train)
              (proj): Linear(in_features=768, out_features=768, dtype=float32)
              (proj_drop): Dropout(p=0.0, axis=None, mode=upscale_in_train)
              (softmax): Softmax(axis=-1)
            )
            (drop_path): DropPath()
            (norm2): LayerNorm(normalized_shape=[768], epsilon=1e-05)
            (mlp): Mlp(
              (fc1): Linear(in_features=768, out_features=3072, dtype=float32)
              (act): GELU(approximate=False)
              (fc2): Linear(in_features=3072, out_features=768, dtype=float32)
              (drop): Dropout(p=0.0, axis=None, mode=upscale_in_train)
            )
          )
        )
      )
    )
    (norm0): LayerNorm(normalized_shape=[96], epsilon=1e-05)
    (norm1): LayerNorm(normalized_shape=[192], epsilon=1e-05)
    (norm2): LayerNorm(normalized_shape=[384], epsilon=1e-05)
    (norm3): LayerNorm(normalized_shape=[768], epsilon=1e-05)
  )
  (heads): LayerDict(
    (segmentation): MaskFormer(
      (loss): MaskFormerLoss(
        (matcher): HungarianMatcher()
      )
      (seghead): MaskFormerHead(
        (pixel_decoder): BasePixelDecoder(
          (lateral_convs): LayerList(
            (0): None
            (1): ConvNormAct(
              (_conv): Conv2D(512, 256, kernel_size=[1, 1], padding=same, data_format=NCHW)
…
              )
            )
          )
          (mask_features): ConvNormAct(
            (_conv): Conv2D(256, 256, kernel_size=[3, 3], padding=1, data_format=NCHW)
          )
        )
        (predictor): TransformerPredictor(
          (pe_layer): PositionEmbeddingSine()
          (transformer): Transformer(
            (encoder): TransformerEncoder(
              (layers): LayerList()
            )
            (decoder): TransformerDecoder(
              (decoder_list): LayerList(
                (0): DecoderLayer(
                  (self_attn): MultiHeadAttention(
                    (q_proj): Linear(in_features=256, out_features=256, dtype=float32)
                    (k_proj): Linear(in_features=256, out_features=256, dtype=float32)
                    (v_proj): Linear(in_features=256, out_features=256, dtype=float32)
                    (out_proj): Linear(in_features=256, out_features=256, dtype=float32)
                  )
                  (multihead_attn): MultiHeadAttention(
                    (q_proj): Linear(in_features=256, out_features=256, dtype=float32)
                    (k_proj): Linear(in_features=256, out_features=256, dtype=float32)
                    (v_proj): Linear(in_features=256, out_features=256, dtype=float32)
                    (out_proj): Linear(in_features=256, out_features=256, dtype=float32)
                  )
                  (linear1): Linear(in_features=256, out_features=2048, dtype=float32)
                  (dropout): Dropout(p=0.1, axis=None, mode=upscale_in_train)
                  (linear2): Linear(in_features=2048, out_features=256, dtype=float32)
                  (norm1): LayerNorm(normalized_shape=[256], epsilon=1e-05)
                  (norm2): LayerNorm(normalized_shape=[256], epsilon=1e-05)
                  (norm3): LayerNorm(normalized_shape=[256], epsilon=1e-05)
                  (dropout1): Dropout(p=0.1, axis=None, mode=upscale_in_train)
                  (dropout2): Dropout(p=0.1, axis=None, mode=upscale_in_train)
                  (dropout3): Dropout(p=0.1, axis=None, mode=upscale_in_train)
                  (activation): ReLU()
                )
                (1): DecoderLayer(
                  (self_attn): MultiHeadAttention(
                    (q_proj): Linear(in_features=256, out_features=256, dtype=float32)
                    (k_proj): Linear(in_features=256, out_features=256, dtype=float32)
                    (v_proj): Linear(in_features=256, out_features=256, dtype=float32)
                    (out_proj): Linear(in_features=256, out_features=256, dtype=float32)
                  )
                  (multihead_attn): MultiHeadAttention(
                    (q_proj): Linear(in_features=256, out_features=256, dtype=float32)
                    (k_proj): Linear(in_features=256, out_features=256, dtype=float32)
                    (v_proj): Linear(in_features=256, out_features=256, dtype=float32)
                    (out_proj): Linear(in_features=256, out_features=256, dtype=float32)
                  )
                  (linear1): Linear(in_features=256, out_features=2048, dtype=float32)
                  (dropout): Dropout(p=0.1, axis=None, mode=upscale_in_train)
                  (linear2): Linear(in_features=2048, out_features=256, dtype=float32)
                  (norm1): LayerNorm(normalized_shape=[256], epsilon=1e-05)
                  (norm2): LayerNorm(normalized_shape=[256], epsilon=1e-05)
                  (norm3): LayerNorm(normalized_shape=[256], epsilon=1e-05)
                  (dropout1): Dropout(p=0.1, axis=None, mode=upscale_in_train)
                  (dropout2): Dropout(p=0.1, axis=None, mode=upscale_in_train)
                  (dropout3): Dropout(p=0.1, axis=None, mode=upscale_in_train)
                  (activation): ReLU()
                )
                (2): DecoderLayer(
                  (self_attn): MultiHeadAttention(
                    (q_proj): Linear(in_features=256, out_features=256, dtype=float32)
                    (k_proj): Linear(in_features=256, out_features=256, dtype=float32)
                    (v_proj): Linear(in_features=256, out_features=256, dtype=float32)
                    (out_proj): Linear(in_features=256, out_features=256, dtype=float32)
                  )
                  (multihead_attn): MultiHeadAttention(
                    (q_proj): Linear(in_features=256, out_features=256, dtype=float32)
                    (k_proj): Linear(in_features=256, out_features=256, dtype=float32)
                    (v_proj): Linear(in_features=256, out_features=256, dtype=float32)
                    (out_proj): Linear(in_features=256, out_features=256, dtype=float32)
                  )
                  (linear1): Linear(in_features=256, out_features=2048, dtype=float32)
                  (dropout): Dropout(p=0.1, axis=None, mode=upscale_in_train)
                  (linear2): Linear(in_features=2048, out_features=256, dtype=float32)
                  (norm1): LayerNorm(normalized_shape=[256], epsilon=1e-05)
                  (norm2): LayerNorm(normalized_shape=[256], epsilon=1e-05)
                  (norm3): LayerNorm(normalized_shape=[256], epsilon=1e-05)
                  (dropout1): Dropout(p=0.1, axis=None, mode=upscale_in_train)
                  (dropout2): Dropout(p=0.1, axis=None, mode=upscale_in_train)
                  (dropout3): Dropout(p=0.1, axis=None, mode=upscale_in_train)
                  (activation): ReLU()
                )
                (3): DecoderLayer(
                  (self_attn): MultiHeadAttention(
                    (q_proj): Linear(in_features=256, out_features=256, dtype=float32)
                    (k_proj): Linear(in_features=256, out_features=256, dtype=float32)
                    (v_proj): Linear(in_features=256, out_features=256, dtype=float32)
                    (out_proj): Linear(in_features=256, out_features=256, dtype=float32)
                  )
                  (multihead_attn): MultiHeadAttention(
                    (q_proj): Linear(in_features=256, out_features=256, dtype=float32)
                    (k_proj): Linear(in_features=256, out_features=256, dtype=float32)
                    (v_proj): Linear(in_features=256, out_features=256, dtype=float32)
                    (out_proj): Linear(in_features=256, out_features=256, dtype=float32)
                  )
                  (linear1): Linear(in_features=256, out_features=2048, dtype=float32)
                  (dropout): Dropout(p=0.1, axis=None, mode=upscale_in_train)
                  (linear2): Linear(in_features=2048, out_features=256, dtype=float32)
                  (norm1): LayerNorm(normalized_shape=[256], epsilon=1e-05)
                  (norm2): LayerNorm(normalized_shape=[256], epsilon=1e-05)
                  (norm3): LayerNorm(normalized_shape=[256], epsilon=1e-05)
                  (dropout1): Dropout(p=0.1, axis=None, mode=upscale_in_train)
                  (dropout2): Dropout(p=0.1, axis=None, mode=upscale_in_train)
                  (dropout3): Dropout(p=0.1, axis=None, mode=upscale_in_train)
                  (activation): ReLU()
                )
                (4): DecoderLayer(
                  (self_attn): MultiHeadAttention(
                    (q_proj): Linear(in_features=256, out_features=256, dtype=float32)
                    (k_proj): Linear(in_features=256, out_features=256, dtype=float32)
                    (v_proj): Linear(in_features=256, out_features=256, dtype=float32)
                    (out_proj): Linear(in_features=256, out_features=256, dtype=float32)
                  )
                  (multihead_attn): MultiHeadAttention(
                    (q_proj): Linear(in_features=256, out_features=256, dtype=float32)
                    (k_proj): Linear(in_features=256, out_features=256, dtype=float32)
                    (v_proj): Linear(in_features=256, out_features=256, dtype=float32)
                    (out_proj): Linear(in_features=256, out_features=256, dtype=float32)
                  )
                  (linear1): Linear(in_features=256, out_features=2048, dtype=float32)
                  (dropout): Dropout(p=0.1, axis=None, mode=upscale_in_train)
                  (linear2): Linear(in_features=2048, out_features=256, dtype=float32)
                  (norm1): LayerNorm(normalized_shape=[256], epsilon=1e-05)
                  (norm2): LayerNorm(normalized_shape=[256], epsilon=1e-05)
                  (norm3): LayerNorm(normalized_shape=[256], epsilon=1e-05)
                  (dropout1): Dropout(p=0.1, axis=None, mode=upscale_in_train)
                  (dropout2): Dropout(p=0.1, axis=None, mode=upscale_in_train)
                  (dropout3): Dropout(p=0.1, axis=None, mode=upscale_in_train)
                  (activation): ReLU()
                )
                (5): DecoderLayer(
                  (self_attn): MultiHeadAttention(
                    (q_proj): Linear(in_features=256, out_features=256, dtype=float32)
                    (k_proj): Linear(in_features=256, out_features=256, dtype=float32)
                    (v_proj): Linear(in_features=256, out_features=256, dtype=float32)
                    (out_proj): Linear(in_features=256, out_features=256, dtype=float32)
                  )
                  (multihead_attn): MultiHeadAttention(
                    (q_proj): Linear(in_features=256, out_features=256, dtype=float32)
                    (k_proj): Linear(in_features=256, out_features=256, dtype=float32)
                    (v_proj): Linear(in_features=256, out_features=256, dtype=float32)
                    (out_proj): Linear(in_features=256, out_features=256, dtype=float32)
                  )
                  (linear1): Linear(in_features=256, out_features=2048, dtype=float32)
                  (dropout): Dropout(p=0.1, axis=None, mode=upscale_in_train)
                  (linear2): Linear(in_features=2048, out_features=256, dtype=float32)
                  (norm1): LayerNorm(normalized_shape=[256], epsilon=1e-05)
                  (norm2): LayerNorm(normalized_shape=[256], epsilon=1e-05)
                  (norm3): LayerNorm(normalized_shape=[256], epsilon=1e-05)
                  (dropout1): Dropout(p=0.1, axis=None, mode=upscale_in_train)
                  (dropout2): Dropout(p=0.1, axis=None, mode=upscale_in_train)
                  (dropout3): Dropout(p=0.1, axis=None, mode=upscale_in_train)
                  (activation): ReLU()
                )
              )
              (norm): LayerNorm(normalized_shape=[256], epsilon=1e-05)
            )
          )
          (query_embed): Embedding(100, 256, sparse=False)
          (input_proj): Conv2D(1024, 256, kernel_size=[1, 1], data_format=NCHW)
          (class_embed): Linear(in_features=256, out_features=20, dtype=float32)
          (mask_embed): MLP(
            (layers): LayerList(
              (0): Linear(in_features=256, out_features=256, dtype=float32)
              (1): Linear(in_features=256, out_features=256, dtype=float32)
              (2): Linear(in_features=256, out_features=256, dtype=float32)
            )
          )
        )
      )
    )
    (fgvc): SwinClsHead(
      (avg_pool): AdaptiveAvgPool2D(output_size=1)
      (conv16_32): ConvBNLayer(
        (_pool2d_avg): AvgPool2D(kernel_size=2, stride=2, padding=0)
        (_conv): Conv2D(384, 384, kernel_size=[3, 3], stride=[2, 2], padding=1, data_format=NCHW)
        (_batch_norm): SyncBatchNorm(num_features=384, momentum=0.9, epsilon=1e-05)
…
          )
          (2): Sequential(
            (conv): Conv2D(384, 256, kernel_size=[1, 1], data_format=NCHW)
            (norm): GroupNorm(num_groups=32, num_channels=256, epsilon=1e-05)
          )
          (3): Sequential(
            (conv): Conv2D(768, 256, kernel_size=[1, 1], data_format=NCHW)
            (norm): GroupNorm(num_groups=32, num_channels=256, epsilon=1e-05)
          )
        )
        (encoder): DINOTransformerEncoder(
          (layers): LayerList(
            (0): DINOTransformerEncoderLayer(
              (self_attn): MSDeformableAttention(
                (sampling_offsets): Linear(in_features=256, out_features=256, dtype=float32)
                (attention_weights): Linear(in_features=256, out_features=128, dtype=float32)
                (value_proj): Linear(in_features=256, out_features=256, dtype=float32)
                (output_proj): Linear(in_features=256, out_features=256, dtype=float32)
              )
              (dropout1): Dropout(p=0.0, axis=None, mode=upscale_in_train)
              (norm1): LayerNorm(normalized_shape=[256], epsilon=1e-05)
              (linear1): Linear(in_features=256, out_features=2048, dtype=float32)
              (dropout2): Dropout(p=0.0, axis=None, mode=upscale_in_train)
              (linear2): Linear(in_features=2048, out_features=256, dtype=float32)
              (dropout3): Dropout(p=0.0, axis=None, mode=upscale_in_train)
              (norm2): LayerNorm(normalized_shape=[256], epsilon=1e-05)
            )
            (1): DINOTransformerEncoderLayer(
              (self_attn): MSDeformableAttention(
                (sampling_offsets): Linear(in_features=256, out_features=256, dtype=float32)
                (attention_weights): Linear(in_features=256, out_features=128, dtype=float32)
                (value_proj): Linear(in_features=256, out_features=256, dtype=float32)
                (output_proj): Linear(in_features=256, out_features=256, dtype=float32)
              )
              (dropout1): Dropout(p=0.0, axis=None, mode=upscale_in_train)
              (norm1): LayerNorm(normalized_shape=[256], epsilon=1e-05)
              (linear1): Linear(in_features=256, out_features=2048, dtype=float32)
              (dropout2): Dropout(p=0.0, axis=None, mode=upscale_in_train)
              (linear2): Linear(in_features=2048, out_features=256, dtype=float32)
              (dropout3): Dropout(p=0.0, axis=None, mode=upscale_in_train)
              (norm2): LayerNorm(normalized_shape=[256], epsilon=1e-05)
            )
            (2): DINOTransformerEncoderLayer(
              (self_attn): MSDeformableAttention(
                (sampling_offsets): Linear(in_features=256, out_features=256, dtype=float32)
                (attention_weights): Linear(in_features=256, out_features=128, dtype=float32)
                (value_proj): Linear(in_features=256, out_features=256, dtype=float32)
                (output_proj): Linear(in_features=256, out_features=256, dtype=float32)
              )
              (dropout1): Dropout(p=0.0, axis=None, mode=upscale_in_train)
              (norm1): LayerNorm(normalized_shape=[256], epsilon=1e-05)
              (linear1): Linear(in_features=256, out_features=2048, dtype=float32)
              (dropout2): Dropout(p=0.0, axis=None, mode=upscale_in_train)
              (linear2): Linear(in_features=2048, out_features=256, dtype=float32)
              (dropout3): Dropout(p=0.0, axis=None, mode=upscale_in_train)
              (norm2): LayerNorm(normalized_shape=[256], epsilon=1e-05)
            )
            (3): DINOTransformerEncoderLayer(
              (self_attn): MSDeformableAttention(
                (sampling_offsets): Linear(in_features=256, out_features=256, dtype=float32)
                (attention_weights): Linear(in_features=256, out_features=128, dtype=float32)
                (value_proj): Linear(in_features=256, out_features=256, dtype=float32)
                (output_proj): Linear(in_features=256, out_features=256, dtype=float32)
              )
              (dropout1): Dropout(p=0.0, axis=None, mode=upscale_in_train)
              (norm1): LayerNorm(normalized_shape=[256], epsilon=1e-05)
              (linear1): Linear(in_features=256, out_features=2048, dtype=float32)
              (dropout2): Dropout(p=0.0, axis=None, mode=upscale_in_train)
              (linear2): Linear(in_features=2048, out_features=256, dtype=float32)
              (dropout3): Dropout(p=0.0, axis=None, mode=upscale_in_train)
              (norm2): LayerNorm(normalized_shape=[256], epsilon=1e-05)
            )
            (4): DINOTransformerEncoderLayer(
              (self_attn): MSDeformableAttention(
                (sampling_offsets): Linear(in_features=256, out_features=256, dtype=float32)
                (attention_weights): Linear(in_features=256, out_features=128, dtype=float32)
                (value_proj): Linear(in_features=256, out_features=256, dtype=float32)
                (output_proj): Linear(in_features=256, out_features=256, dtype=float32)
              )
              (dropout1): Dropout(p=0.0, axis=None, mode=upscale_in_train)
              (norm1): LayerNorm(normalized_shape=[256], epsilon=1e-05)
              (linear1): Linear(in_features=256, out_features=2048, dtype=float32)
              (dropout2): Dropout(p=0.0, axis=None, mode=upscale_in_train)
              (linear2): Linear(in_features=2048, out_features=256, dtype=float32)
              (dropout3): Dropout(p=0.0, axis=None, mode=upscale_in_train)
              (norm2): LayerNorm(normalized_shape=[256], epsilon=1e-05)
            )
            (5): DINOTransformerEncoderLayer(
              (self_attn): MSDeformableAttention(
                (sampling_offsets): Linear(in_features=256, out_features=256, dtype=float32)
                (attention_weights): Linear(in_features=256, out_features=128, dtype=float32)
                (value_proj): Linear(in_features=256, out_features=256, dtype=float32)
                (output_proj): Linear(in_features=256, out_features=256, dtype=float32)
              )
              (dropout1): Dropout(p=0.0, axis=None, mode=upscale_in_train)
              (norm1): LayerNorm(normalized_shape=[256], epsilon=1e-05)
              (linear1): Linear(in_features=256, out_features=2048, dtype=float32)
              (dropout2): Dropout(p=0.0, axis=None, mode=upscale_in_train)
              (linear2): Linear(in_features=2048, out_features=256, dtype=float32)
              (dropout3): Dropout(p=0.0, axis=None, mode=upscale_in_train)
              (norm2): LayerNorm(normalized_shape=[256], epsilon=1e-05)
            )
          )
        )
        (decoder): DINOTransformerDecoder(
          (layers): LayerList(
            (0): DINOTransformerDecoderLayer(
              (self_attn): MultiHeadAttention(
                (out_proj): Linear(in_features=256, out_features=256, dtype=float32)
              )
              (dropout1): Dropout(p=0.0, axis=None, mode=upscale_in_train)
              (norm1): LayerNorm(normalized_shape=[256], epsilon=1e-05)
              (cross_attn): MSDeformableAttention(
                (sampling_offsets): Linear(in_features=256, out_features=256, dtype=float32)
                (attention_weights): Linear(in_features=256, out_features=128, dtype=float32)
                (value_proj): Linear(in_features=256, out_features=256, dtype=float32)
                (output_proj): Linear(in_features=256, out_features=256, dtype=float32)
              )
              (dropout2): Dropout(p=0.0, axis=None, mode=upscale_in_train)
              (norm2): LayerNorm(normalized_shape=[256], epsilon=1e-05)
              (linear1): Linear(in_features=256, out_features=2048, dtype=float32)
              (dropout3): Dropout(p=0.0, axis=None, mode=upscale_in_train)
              (linear2): Linear(in_features=2048, out_features=256, dtype=float32)
              (dropout4): Dropout(p=0.0, axis=None, mode=upscale_in_train)
              (norm3): LayerNorm(normalized_shape=[256], epsilon=1e-05)
            )
            (1): DINOTransformerDecoderLayer(
              (self_attn): MultiHeadAttention(
                (out_proj): Linear(in_features=256, out_features=256, dtype=float32)
              )
              (dropout1): Dropout(p=0.0, axis=None, mode=upscale_in_train)
              (norm1): LayerNorm(normalized_shape=[256], epsilon=1e-05)
              (cross_attn): MSDeformableAttention(
                (sampling_offsets): Linear(in_features=256, out_features=256, dtype=float32)
                (attention_weights): Linear(in_features=256, out_features=128, dtype=float32)
                (value_proj): Linear(in_features=256, out_features=256, dtype=float32)
                (output_proj): Linear(in_features=256, out_features=256, dtype=float32)
              )
              (dropout2): Dropout(p=0.0, axis=None, mode=upscale_in_train)
              (norm2): LayerNorm(normalized_shape=[256], epsilon=1e-05)
              (linear1): Linear(in_features=256, out_features=2048, dtype=float32)
              (dropout3): Dropout(p=0.0, axis=None, mode=upscale_in_train)
              (linear2): Linear(in_features=2048, out_features=256, dtype=float32)
              (dropout4): Dropout(p=0.0, axis=None, mode=upscale_in_train)
              (norm3): LayerNorm(normalized_shape=[256], epsilon=1e-05)
            )
            (2): DINOTransformerDecoderLayer(
              (self_attn): MultiHeadAttention(
                (out_proj): Linear(in_features=256, out_features=256, dtype=float32)
              )
              (dropout1): Dropout(p=0.0, axis=None, mode=upscale_in_train)
              (norm1): LayerNorm(normalized_shape=[256], epsilon=1e-05)
              (cross_attn): MSDeformableAttention(
                (sampling_offsets): Linear(in_features=256, out_features=256, dtype=float32)
                (attention_weights): Linear(in_features=256, out_features=128, dtype=float32)
                (value_proj): Linear(in_features=256, out_features=256, dtype=float32)
                (output_proj): Linear(in_features=256, out_features=256, dtype=float32)
              )
              (dropout2): Dropout(p=0.0, axis=None, mode=upscale_in_train)
              (norm2): LayerNorm(normalized_shape=[256], epsilon=1e-05)
              (linear1): Linear(in_features=256, out_features=2048, dtype=float32)
              (dropout3): Dropout(p=0.0, axis=None, mode=upscale_in_train)
              (linear2): Linear(in_features=2048, out_features=256, dtype=float32)
              (dropout4): Dropout(p=0.0, axis=None, mode=upscale_in_train)
              (norm3): LayerNorm(normalized_shape=[256], epsilon=1e-05)
            )
            (3): DINOTransformerDecoderLayer(
              (self_attn): MultiHeadAttention(
                (out_proj): Linear(in_features=256, out_features=256, dtype=float32)
              )
              (dropout1): Dropout(p=0.0, axis=None, mode=upscale_in_train)
              (norm1): LayerNorm(normalized_shape=[256], epsilon=1e-05)
              (cross_attn): MSDeformableAttention(
                (sampling_offsets): Linear(in_features=256, out_features=256, dtype=float32)
                (attention_weights): Linear(in_features=256, out_features=128, dtype=float32)
                (value_proj): Linear(in_features=256, out_features=256, dtype=float32)
                (output_proj): Linear(in_features=256, out_features=256, dtype=float32)
              )
              (dropout2): Dropout(p=0.0, axis=None, mode=upscale_in_train)
              (norm2): LayerNorm(normalized_shape=[256], epsilon=1e-05)
              (linear1): Linear(in_features=256, out_features=2048, dtype=float32)
              (dropout3): Dropout(p=0.0, axis=None, mode=upscale_in_train)
              (linear2): Linear(in_features=2048, out_features=256, dtype=float32)
              (dropout4): Dropout(p=0.0, axis=None, mode=upscale_in_train)
              (norm3): LayerNorm(normalized_shape=[256], epsilon=1e-05)
            )
            (4): DINOTransformerDecoderLayer(
              (self_attn): MultiHeadAttention(
                (out_proj): Linear(in_features=256, out_features=256, dtype=float32)
              )
              (dropout1): Dropout(p=0.0, axis=None, mode=upscale_in_train)
              (norm1): LayerNorm(normalized_shape=[256], epsilon=1e-05)
              (cross_attn): MSDeformableAttention(
                (sampling_offsets): Linear(in_features=256, out_features=256, dtype=float32)
                (attention_weights): Linear(in_features=256, out_features=128, dtype=float32)
                (value_proj): Linear(in_features=256, out_features=256, dtype=float32)
                (output_proj): Linear(in_features=256, out_features=256, dtype=float32)
              )
              (dropout2): Dropout(p=0.0, axis=None, mode=upscale_in_train)
              (norm2): LayerNorm(normalized_shape=[256], epsilon=1e-05)
              (linear1): Linear(in_features=256, out_features=2048, dtype=float32)
              (dropout3): Dropout(p=0.0, axis=None, mode=upscale_in_train)
              (linear2): Linear(in_features=2048, out_features=256, dtype=float32)
              (dropout4): Dropout(p=0.0, axis=None, mode=upscale_in_train)
              (norm3): LayerNorm(normalized_shape=[256], epsilon=1e-05)
            )
            (5): DINOTransformerDecoderLayer(
              (self_attn): MultiHeadAttention(
                (out_proj): Linear(in_features=256, out_features=256, dtype=float32)
              )
              (dropout1): Dropout(p=0.0, axis=None, mode=upscale_in_train)
              (norm1): LayerNorm(normalized_shape=[256], epsilon=1e-05)
              (cross_attn): MSDeformableAttention(
                (sampling_offsets): Linear(in_features=256, out_features=256, dtype=float32)
                (attention_weights): Linear(in_features=256, out_features=128, dtype=float32)
                (value_proj): Linear(in_features=256, out_features=256, dtype=float32)
                (output_proj): Linear(in_features=256, out_features=256, dtype=float32)
              )
              (dropout2): Dropout(p=0.0, axis=None, mode=upscale_in_train)
              (norm2): LayerNorm(normalized_shape=[256], epsilon=1e-05)
              (linear1): Linear(in_features=256, out_features=2048, dtype=float32)
              (dropout3): Dropout(p=0.0, axis=None, mode=upscale_in_train)
              (linear2): Linear(in_features=2048, out_features=256, dtype=float32)
              (dropout4): Dropout(p=0.0, axis=None, mode=upscale_in_train)
              (norm3): LayerNorm(normalized_shape=[256], epsilon=1e-05)
            )
          )
          (norm): LayerNorm(normalized_shape=[256], epsilon=1e-05)
        )
        (denoising_class_embed): Embedding(45, 256, sparse=False)
        (position_embedding): PositionEmbedding()
        (level_embed): Embedding(4, 256, sparse=False)
        (tgt_embed): Embedding(900, 256, sparse=False)
        (query_pos_head): MLP(
          (layers): LayerList(
            (0): Linear(in_features=512, out_features=256, dtype=float32)
            (1): Linear(in_features=256, out_features=256, dtype=float32)
          )
        )
        (enc_output): Sequential(
          (0): Linear(in_features=256, out_features=256, dtype=float32)
          (1): LayerNorm(normalized_shape=[256], epsilon=1e-05)
        )
        (enc_score_head): Linear(in_features=256, out_features=45, dtype=float32)
        (enc_bbox_head): MLP(
          (layers): LayerList(
            (0): Linear(in_features=256, out_features=256, dtype=float32)
            (1): Linear(in_features=256, out_features=256, dtype=float32)
            (2): Linear(in_features=256, out_features=4, dtype=float32)
          )
        )
        (dec_score_head): LayerList(
          (0): Linear(in_features=256, out_features=45, dtype=float32)
          (1): Linear(in_features=256, out_features=45, dtype=float32)
          (2): Linear(in_features=256, out_features=45, dtype=float32)
          (3): Linear(in_features=256, out_features=45, dtype=float32)
          (4): Linear(in_features=256, out_features=45, dtype=float32)
          (5): Linear(in_features=256, out_features=45, dtype=float32)
        )
        (dec_bbox_head): LayerList(
          (0): MLP(
            (layers): LayerList(
              (0): Linear(in_features=256, out_features=256, dtype=float32)
              (1): Linear(in_features=256, out_features=256, dtype=float32)
              (2): Linear(in_features=256, out_features=4, dtype=float32)
            )
          )
          (1): MLP(
            (layers): LayerList(
              (0): Linear(in_features=256, out_features=256, dtype=float32)
              (1): Linear(in_features=256, out_features=256, dtype=float32)
              (2): Linear(in_features=256, out_features=4, dtype=float32)
            )
          )
          (2): MLP(
            (layers): LayerList(
              (0): Linear(in_features=256, out_features=256, dtype=float32)
              (1): Linear(in_features=256, out_features=256, dtype=float32)
              (2): Linear(in_features=256, out_features=4, dtype=float32)
            )
          )
          (3): MLP(
            (layers): LayerList(
              (0): Linear(in_features=256, out_features=256, dtype=float32)
              (1): Linear(in_features=256, out_features=256, dtype=float32)
              (2): Linear(in_features=256, out_features=4, dtype=float32)
            )
          )
          (4): MLP(
            (layers): LayerList(
              (0): Linear(in_features=256, out_features=256, dtype=float32)
              (1): Linear(in_features=256, out_features=256, dtype=float32)
              (2): Linear(in_features=256, out_features=4, dtype=float32)
            )
          )
          (5): MLP(
            (layers): LayerList(
              (0): Linear(in_features=256, out_features=256, dtype=float32)
              (1): Linear(in_features=256, out_features=256, dtype=float32)
              (2): Linear(in_features=256, out_features=4, dtype=float32)
            )
          )
        )
      )
      (detr_head): DINOHead(
        (loss): DINOLoss(
          (matcher): HungarianMatcher()
        )
      )
    )
  )
)
[07/30 13:04:44 ufo]: Optim:
Weight Decay, params: 
Exception during training:
Traceback (most recent call last):
  File "/root/autodl-tmp/Open-TransMind/PAZHOU/base/./detectron2/engine/train_loop.py", line 154, in train
…
backbone unexpected keys: ['norm.weight', 'norm.bias', 'head.weight', 'head.bias', 'layers.0.blocks.1.attn_mask', 'layers.1.blocks.1.attn_mask', 'layers.2.blocks.1.attn_mask', 'layers.2.blocks.3.attn_mask', 'layers.2.blocks.5.attn_mask', 'layers.2.blocks.7.attn_mask', 'layers.2.blocks.9.attn_mask', 'layers.2.blocks.11.attn_mask', 'layers.2.blocks.13.attn_mask', 'layers.2.blocks.15.attn_mask', 'layers.2.blocks.17.attn_mask']
[07/30 13:36:08 ufo]: Model:
MultiTaskBatchFuse(
  (backbone): SwinTransformer_small_patch4_window7_224_maskformer(
    (patch_embed): PatchEmbed(
      (proj): Conv2D(3, 96, kernel_size=[4, 4], stride=[4, 4], data_format=NCHW)
      (norm): LayerNorm(normalized_shape=[96], epsilon=1e-05)
    )
    (pos_drop): Dropout(p=0.0, axis=None, mode=upscale_in_train)
    (layers): LayerList(
      (0): BasicLayer(
        (blocks): LayerList(
          (0): SwinTransformerBlock(
            (norm1): LayerNorm(normalized_shape=[96], epsilon=1e-05)
            (attn): WindowAttention(
              (qkv): Linear(in_features=96, out_features=288, dtype=float32)
              (attn_drop): Dropout(p=0.0, axis=None, mode=upscale_in_train)
              (proj): Linear(in_features=96, out_features=96, dtype=float32)
              (proj_drop): Dropout(p=0.0, axis=None, mode=upscale_in_train)
              (softmax): Softmax(axis=-1)
            )
            (drop_path): Identity()
            (norm2): LayerNorm(normalized_shape=[96], epsilon=1e-05)
            (mlp): Mlp(
              (fc1): Linear(in_features=96, out_features=384, dtype=float32)
              (act): GELU(approximate=False)
              (fc2): Linear(in_features=384, out_features=96, dtype=float32)
              (drop): Dropout(p=0.0, axis=None, mode=upscale_in_train)
            )
          )
          (1): SwinTransformerBlock(
            (norm1): LayerNorm(normalized_shape=[96], epsilon=1e-05)
            (attn): WindowAttention(
              (qkv): Linear(in_features=96, out_features=288, dtype=float32)
              (attn_drop): Dropout(p=0.0, axis=None, mode=upscale_in_train)
              (proj): Linear(in_features=96, out_features=96, dtype=float32)
              (proj_drop): Dropout(p=0.0, axis=None, mode=upscale_in_train)
              (softmax): Softmax(axis=-1)
            )
            (drop_path): DropPath()
            (norm2): LayerNorm(normalized_shape=[96], epsilon=1e-05)
            (mlp): Mlp(
              (fc1): Linear(in_features=96, out_features=384, dtype=float32)
              (act): GELU(approximate=False)
              (fc2): Linear(in_features=384, out_features=96, dtype=float32)
              (drop): Dropout(p=0.0, axis=None, mode=upscale_in_train)
            )
          )
        )
        (downsample): PatchMerging(
          (reduction): Linear(in_features=384, out_features=192, dtype=float32)
          (norm): LayerNorm(normalized_shape=[384], epsilon=1e-05)
        )
      )
      (1): BasicLayer(
        (blocks): LayerList(
          (0): SwinTransformerBlock(
            (norm1): LayerNorm(normalized_shape=[192], epsilon=1e-05)
            (attn): WindowAttention(
              (qkv): Linear(in_features=192, out_features=576, dtype=float32)
              (attn_drop): Dropout(p=0.0, axis=None, mode=upscale_in_train)
              (proj): Linear(in_features=192, out_features=192, dtype=float32)
              (proj_drop): Dropout(p=0.0, axis=None, mode=upscale_in_train)
              (softmax): Softmax(axis=-1)
            )
            (drop_path): DropPath()
            (norm2): LayerNorm(normalized_shape=[192], epsilon=1e-05)
            (mlp): Mlp(
              (fc1): Linear(in_features=192, out_features=768, dtype=float32)
              (act): GELU(approximate=False)
              (fc2): Linear(in_features=768, out_features=192, dtype=float32)
              (drop): Dropout(p=0.0, axis=None, mode=upscale_in_train)
            )
          )
          (1): SwinTransformerBlock(
            (norm1): LayerNorm(normalized_shape=[192], epsilon=1e-05)
            (attn): WindowAttention(
              (qkv): Linear(in_features=192, out_features=576, dtype=float32)
              (attn_drop): Dropout(p=0.0, axis=None, mode=upscale_in_train)
              (proj): Linear(in_features=192, out_features=192, dtype=float32)
              (proj_drop): Dropout(p=0.0, axis=None, mode=upscale_in_train)
              (softmax): Softmax(axis=-1)
            )
            (drop_path): DropPath()
            (norm2): LayerNorm(normalized_shape=[192], epsilon=1e-05)
            (mlp): Mlp(
              (fc1): Linear(in_features=192, out_features=768, dtype=float32)
              (act): GELU(approximate=False)
              (fc2): Linear(in_features=768, out_features=192, dtype=float32)
              (drop): Dropout(p=0.0, axis=None, mode=upscale_in_train)
            )
          )
        )
        (downsample): PatchMerging(
          (reduction): Linear(in_features=768, out_features=384, dtype=float32)
          (norm): LayerNorm(normalized_shape=[768], epsilon=1e-05)
        )
      )
      (2): BasicLayer(
        (blocks): LayerList(
          (0): SwinTransformerBlock(
            (norm1): LayerNorm(normalized_shape=[384], epsilon=1e-05)
            (attn): WindowAttention(
              (qkv): Linear(in_features=384, out_features=1152, dtype=float32)
              (attn_drop): Dropout(p=0.0, axis=None, mode=upscale_in_train)
              (proj): Linear(in_features=384, out_features=384, dtype=float32)
              (proj_drop): Dropout(p=0.0, axis=None, mode=upscale_in_train)
              (softmax): Softmax(axis=-1)
            )
            (drop_path): DropPath()
            (norm2): LayerNorm(normalized_shape=[384], epsilon=1e-05)
            (mlp): Mlp(
              (fc1): Linear(in_features=384, out_features=1536, dtype=float32)
              (act): GELU(approximate=False)
              (fc2): Linear(in_features=1536, out_features=384, dtype=float32)
              (drop): Dropout(p=0.0, axis=None, mode=upscale_in_train)
            )
          )
          (1): SwinTransformerBlock(
            (norm1): LayerNorm(normalized_shape=[384], epsilon=1e-05)
            (attn): WindowAttention(
              (qkv): Linear(in_features=384, out_features=1152, dtype=float32)
              (attn_drop): Dropout(p=0.0, axis=None, mode=upscale_in_train)
              (proj): Linear(in_features=384, out_features=384, dtype=float32)
              (proj_drop): Dropout(p=0.0, axis=None, mode=upscale_in_train)
              (softmax): Softmax(axis=-1)
            )
            (drop_path): DropPath()
            (norm2): LayerNorm(normalized_shape=[384], epsilon=1e-05)
            (mlp): Mlp(
              (fc1): Linear(in_features=384, out_features=1536, dtype=float32)
              (act): GELU(approximate=False)
              (fc2): Linear(in_features=1536, out_features=384, dtype=float32)
              (drop): Dropout(p=0.0, axis=None, mode=upscale_in_train)
            )
          )
          (2): SwinTransformerBlock(
            (norm1): LayerNorm(normalized_shape=[384], epsilon=1e-05)
            (attn): WindowAttention(
              (qkv): Linear(in_features=384, out_features=1152, dtype=float32)
              (attn_drop): Dropout(p=0.0, axis=None, mode=upscale_in_train)
              (proj): Linear(in_features=384, out_features=384, dtype=float32)
              (proj_drop): Dropout(p=0.0, axis=None, mode=upscale_in_train)
              (softmax): Softmax(axis=-1)
            )
            (drop_path): DropPath()
            (norm2): LayerNorm(normalized_shape=[384], epsilon=1e-05)
            (mlp): Mlp(
              (fc1): Linear(in_features=384, out_features=1536, dtype=float32)
              (act): GELU(approximate=False)
              (fc2): Linear(in_features=1536, out_features=384, dtype=float32)
              (drop): Dropout(p=0.0, axis=None, mode=upscale_in_train)
            )
          )
          (3): SwinTransformerBlock(
            (norm1): LayerNorm(normalized_shape=[384], epsilon=1e-05)
            (attn): WindowAttention(
              (qkv): Linear(in_features=384, out_features=1152, dtype=float32)
              (attn_drop): Dropout(p=0.0, axis=None, mode=upscale_in_train)
              (proj): Linear(in_features=384, out_features=384, dtype=float32)
              (proj_drop): Dropout(p=0.0, axis=None, mode=upscale_in_train)
              (softmax): Softmax(axis=-1)
            )
            (drop_path): DropPath()
            (norm2): LayerNorm(normalized_shape=[384], epsilon=1e-05)
            (mlp): Mlp(
              (fc1): Linear(in_features=384, out_features=1536, dtype=float32)
              (act): GELU(approximate=False)
              (fc2): Linear(in_features=1536, out_features=384, dtype=float32)
              (drop): Dropout(p=0.0, axis=None, mode=upscale_in_train)
            )
          )
          (4): SwinTransformerBlock(
            (norm1): LayerNorm(normalized_shape=[384], epsilon=1e-05)
            (attn): WindowAttention(
              (qkv): Linear(in_features=384, out_features=1152, dtype=float32)
              (attn_drop): Dropout(p=0.0, axis=None, mode=upscale_in_train)
              (proj): Linear(in_features=384, out_features=384, dtype=float32)
              (proj_drop): Dropout(p=0.0, axis=None, mode=upscale_in_train)
              (softmax): Softmax(axis=-1)
            )
            (drop_path): DropPath()
            (norm2): LayerNorm(normalized_shape=[384], epsilon=1e-05)
            (mlp): Mlp(
              (fc1): Linear(in_features=384, out_features=1536, dtype=float32)
              (act): GELU(approximate=False)
              (fc2): Linear(in_features=1536, out_features=384, dtype=float32)
              (drop): Dropout(p=0.0, axis=None, mode=upscale_in_train)
            )
          )
          (5): SwinTransformerBlock(
            (norm1): LayerNorm(normalized_shape=[384], epsilon=1e-05)
            (attn): WindowAttention(
              (qkv): Linear(in_features=384, out_features=1152, dtype=float32)
              (attn_drop): Dropout(p=0.0, axis=None, mode=upscale_in_train)
              (proj): Linear(in_features=384, out_features=384, dtype=float32)
              (proj_drop): Dropout(p=0.0, axis=None, mode=upscale_in_train)
              (softmax): Softmax(axis=-1)
            )
            (drop_path): DropPath()
            (norm2): LayerNorm(normalized_shape=[384], epsilon=1e-05)
            (mlp): Mlp(
              (fc1): Linear(in_features=384, out_features=1536, dtype=float32)
              (act): GELU(approximate=False)
              (fc2): Linear(in_features=1536, out_features=384, dtype=float32)
              (drop): Dropout(p=0.0, axis=None, mode=upscale_in_train)
            )
          )
          (6): SwinTransformerBlock(
            (norm1): LayerNorm(normalized_shape=[384], epsilon=1e-05)
            (attn): WindowAttention(
              (qkv): Linear(in_features=384, out_features=1152, dtype=float32)
              (attn_drop): Dropout(p=0.0, axis=None, mode=upscale_in_train)
              (proj): Linear(in_features=384, out_features=384, dtype=float32)
              (proj_drop): Dropout(p=0.0, axis=None, mode=upscale_in_train)
              (softmax): Softmax(axis=-1)
            )
            (drop_path): DropPath()
            (norm2): LayerNorm(normalized_shape=[384], epsilon=1e-05)
            (mlp): Mlp(
              (fc1): Linear(in_features=384, out_features=1536, dtype=float32)
              (act): GELU(approximate=False)
              (fc2): Linear(in_features=1536, out_features=384, dtype=float32)
              (drop): Dropout(p=0.0, axis=None, mode=upscale_in_train)
            )
          )
          (7): SwinTransformerBlock(
            (norm1): LayerNorm(normalized_shape=[384], epsilon=1e-05)
            (attn): WindowAttention(
              (qkv): Linear(in_features=384, out_features=1152, dtype=float32)
              (attn_drop): Dropout(p=0.0, axis=None, mode=upscale_in_train)
              (proj): Linear(in_features=384, out_features=384, dtype=float32)
              (proj_drop): Dropout(p=0.0, axis=None, mode=upscale_in_train)
              (softmax): Softmax(axis=-1)
            )
            (drop_path): DropPath()
            (norm2): LayerNorm(normalized_shape=[384], epsilon=1e-05)
            (mlp): Mlp(
              (fc1): Linear(in_features=384, out_features=1536, dtype=float32)
              (act): GELU(approximate=False)
              (fc2): Linear(in_features=1536, out_features=384, dtype=float32)
              (drop): Dropout(p=0.0, axis=None, mode=upscale_in_train)
            )
          )
          (8): SwinTransformerBlock(
            (norm1): LayerNorm(normalized_shape=[384], epsilon=1e-05)
            (attn): WindowAttention(
              (qkv): Linear(in_features=384, out_features=1152, dtype=float32)
              (attn_drop): Dropout(p=0.0, axis=None, mode=upscale_in_train)
              (proj): Linear(in_features=384, out_features=384, dtype=float32)
              (proj_drop): Dropout(p=0.0, axis=None, mode=upscale_in_train)
              (softmax): Softmax(axis=-1)
            )
            (drop_path): DropPath()
            (norm2): LayerNorm(normalized_shape=[384], epsilon=1e-05)
            (mlp): Mlp(
              (fc1): Linear(in_features=384, out_features=1536, dtype=float32)
              (act): GELU(approximate=False)
              (fc2): Linear(in_features=1536, out_features=384, dtype=float32)
              (drop): Dropout(p=0.0, axis=None, mode=upscale_in_train)
            )
          )
          (9): SwinTransformerBlock(
            (norm1): LayerNorm(normalized_shape=[384], epsilon=1e-05)
            (attn): WindowAttention(
              (qkv): Linear(in_features=384, out_features=1152, dtype=float32)
              (attn_drop): Dropout(p=0.0, axis=None, mode=upscale_in_train)
              (proj): Linear(in_features=384, out_features=384, dtype=float32)
              (proj_drop): Dropout(p=0.0, axis=None, mode=upscale_in_train)
              (softmax): Softmax(axis=-1)
            )
            (drop_path): DropPath()
            (norm2): LayerNorm(normalized_shape=[384], epsilon=1e-05)
            (mlp): Mlp(
              (fc1): Linear(in_features=384, out_features=1536, dtype=float32)
              (act): GELU(approximate=False)
              (fc2): Linear(in_features=1536, out_features=384, dtype=float32)
              (drop): Dropout(p=0.0, axis=None, mode=upscale_in_train)
            )
          )
          (10): SwinTransformerBlock(
            (norm1): LayerNorm(normalized_shape=[384], epsilon=1e-05)
            (attn): WindowAttention(
              (qkv): Linear(in_features=384, out_features=1152, dtype=float32)
              (attn_drop): Dropout(p=0.0, axis=None, mode=upscale_in_train)
              (proj): Linear(in_features=384, out_features=384, dtype=float32)
              (proj_drop): Dropout(p=0.0, axis=None, mode=upscale_in_train)
              (softmax): Softmax(axis=-1)
            )
            (drop_path): DropPath()
            (norm2): LayerNorm(normalized_shape=[384], epsilon=1e-05)
            (mlp): Mlp(
              (fc1): Linear(in_features=384, out_features=1536, dtype=float32)
              (act): GELU(approximate=False)
              (fc2): Linear(in_features=1536, out_features=384, dtype=float32)
              (drop): Dropout(p=0.0, axis=None, mode=upscale_in_train)
            )
          )
          (11): SwinTransformerBlock(
            (norm1): LayerNorm(normalized_shape=[384], epsilon=1e-05)
            (attn): WindowAttention(
              (qkv): Linear(in_features=384, out_features=1152, dtype=float32)
              (attn_drop): Dropout(p=0.0, axis=None, mode=upscale_in_train)
              (proj): Linear(in_features=384, out_features=384, dtype=float32)
              (proj_drop): Dropout(p=0.0, axis=None, mode=upscale_in_train)
              (softmax): Softmax(axis=-1)
            )
            (drop_path): DropPath()
            (norm2): LayerNorm(normalized_shape=[384], epsilon=1e-05)
            (mlp): Mlp(
              (fc1): Linear(in_features=384, out_features=1536, dtype=float32)
              (act): GELU(approximate=False)
              (fc2): Linear(in_features=1536, out_features=384, dtype=float32)
              (drop): Dropout(p=0.0, axis=None, mode=upscale_in_train)
            )
          )
          (12): SwinTransformerBlock(
            (norm1): LayerNorm(normalized_shape=[384], epsilon=1e-05)
            (attn): WindowAttention(
              (qkv): Linear(in_features=384, out_features=1152, dtype=float32)
              (attn_drop): Dropout(p=0.0, axis=None, mode=upscale_in_train)
              (proj): Linear(in_features=384, out_features=384, dtype=float32)
              (proj_drop): Dropout(p=0.0, axis=None, mode=upscale_in_train)
              (softmax): Softmax(axis=-1)
            )
            (drop_path): DropPath()
            (norm2): LayerNorm(normalized_shape=[384], epsilon=1e-05)
            (mlp): Mlp(
              (fc1): Linear(in_features=384, out_features=1536, dtype=float32)
              (act): GELU(approximate=False)
              (fc2): Linear(in_features=1536, out_features=384, dtype=float32)
              (drop): Dropout(p=0.0, axis=None, mode=upscale_in_train)
            )
          )
          (13): SwinTransformerBlock(
            (norm1): LayerNorm(normalized_shape=[384], epsilon=1e-05)
            (attn): WindowAttention(
              (qkv): Linear(in_features=384, out_features=1152, dtype=float32)
              (attn_drop): Dropout(p=0.0, axis=None, mode=upscale_in_train)
              (proj): Linear(in_features=384, out_features=384, dtype=float32)
              (proj_drop): Dropout(p=0.0, axis=None, mode=upscale_in_train)
              (softmax): Softmax(axis=-1)
            )
            (drop_path): DropPath()
            (norm2): LayerNorm(normalized_shape=[384], epsilon=1e-05)
            (mlp): Mlp(
              (fc1): Linear(in_features=384, out_features=1536, dtype=float32)
              (act): GELU(approximate=False)
              (fc2): Linear(in_features=1536, out_features=384, dtype=float32)
              (drop): Dropout(p=0.0, axis=None, mode=upscale_in_train)
            )
          )
          (14): SwinTransformerBlock(
            (norm1): LayerNorm(normalized_shape=[384], epsilon=1e-05)
            (attn): WindowAttention(
              (qkv): Linear(in_features=384, out_features=1152, dtype=float32)
              (attn_drop): Dropout(p=0.0, axis=None, mode=upscale_in_train)
              (proj): Linear(in_features=384, out_features=384, dtype=float32)
              (proj_drop): Dropout(p=0.0, axis=None, mode=upscale_in_train)
              (softmax): Softmax(axis=-1)
            )
            (drop_path): DropPath()
            (norm2): LayerNorm(normalized_shape=[384], epsilon=1e-05)
            (mlp): Mlp(
              (fc1): Linear(in_features=384, out_features=1536, dtype=float32)
              (act): GELU(approximate=False)
              (fc2): Linear(in_features=1536, out_features=384, dtype=float32)
              (drop): Dropout(p=0.0, axis=None, mode=upscale_in_train)
            )
          )
          (15): SwinTransformerBlock(
            (norm1): LayerNorm(normalized_shape=[384], epsilon=1e-05)
            (attn): WindowAttention(
              (qkv): Linear(in_features=384, out_features=1152, dtype=float32)
              (attn_drop): Dropout(p=0.0, axis=None, mode=upscale_in_train)
              (proj): Linear(in_features=384, out_features=384, dtype=float32)
              (proj_drop): Dropout(p=0.0, axis=None, mode=upscale_in_train)
              (softmax): Softmax(axis=-1)
            )
            (drop_path): DropPath()
            (norm2): LayerNorm(normalized_shape=[384], epsilon=1e-05)
            (mlp): Mlp(
              (fc1): Linear(in_features=384, out_features=1536, dtype=float32)
              (act): GELU(approximate=False)
              (fc2): Linear(in_features=1536, out_features=384, dtype=float32)
              (drop): Dropout(p=0.0, axis=None, mode=upscale_in_train)
            )
          )
          (16): SwinTransformerBlock(
            (norm1): LayerNorm(normalized_shape=[384], epsilon=1e-05)
            (attn): WindowAttention(
              (qkv): Linear(in_features=384, out_features=1152, dtype=float32)
              (attn_drop): Dropout(p=0.0, axis=None, mode=upscale_in_train)
              (proj): Linear(in_features=384, out_features=384, dtype=float32)
              (proj_drop): Dropout(p=0.0, axis=None, mode=upscale_in_train)
              (softmax): Softmax(axis=-1)
            )
            (drop_path): DropPath()
            (norm2): LayerNorm(normalized_shape=[384], epsilon=1e-05)
            (mlp): Mlp(
              (fc1): Linear(in_features=384, out_features=1536, dtype=float32)
              (act): GELU(approximate=False)
              (fc2): Linear(in_features=1536, out_features=384, dtype=float32)
              (drop): Dropout(p=0.0, axis=None, mode=upscale_in_train)
            )
          )
          (17): SwinTransformerBlock(
            (norm1): LayerNorm(normalized_shape=[384], epsilon=1e-05)
            (attn): WindowAttention(
              (qkv): Linear(in_features=384, out_features=1152, dtype=float32)
              (attn_drop): Dropout(p=0.0, axis=None, mode=upscale_in_train)
              (proj): Linear(in_features=384, out_features=384, dtype=float32)
              (proj_drop): Dropout(p=0.0, axis=None, mode=upscale_in_train)
              (softmax): Softmax(axis=-1)
            )
            (drop_path): DropPath()
            (norm2): LayerNorm(normalized_shape=[384], epsilon=1e-05)
            (mlp): Mlp(
              (fc1): Linear(in_features=384, out_features=1536, dtype=float32)
              (act): GELU(approximate=False)
              (fc2): Linear(in_features=1536, out_features=384, dtype=float32)
              (drop): Dropout(p=0.0, axis=None, mode=upscale_in_train)
            )
          )
        )
        (downsample): PatchMerging(
          (reduction): Linear(in_features=1536, out_features=768, dtype=float32)
          (norm): LayerNorm(normalized_shape=[1536], epsilon=1e-05)
        )
      )
      (3): BasicLayer(
        (blocks): LayerList(
          (0): SwinTransformerBlock(
            (norm1): LayerNorm(normalized_shape=[768], epsilon=1e-05)
            (attn): WindowAttention(
              (qkv): Linear(in_features=768, out_features=2304, dtype=float32)
              (attn_drop): Dropout(p=0.0, axis=None, mode=upscale_in_train)
              (proj): Linear(in_features=768, out_features=768, dtype=float32)
              (proj_drop): Dropout(p=0.0, axis=None, mode=upscale_in_train)
              (softmax): Softmax(axis=-1)
            )
            (drop_path): DropPath()
            (norm2): LayerNorm(normalized_shape=[768], epsilon=1e-05)
            (mlp): Mlp(
              (fc1): Linear(in_features=768, out_features=3072, dtype=float32)
              (act): GELU(approximate=False)
              (fc2): Linear(in_features=3072, out_features=768, dtype=float32)
              (drop): Dropout(p=0.0, axis=None, mode=upscale_in_train)
            )
          )
          (1): SwinTransformerBlock(
            (norm1): LayerNorm(normalized_shape=[768], epsilon=1e-05)
            (attn): WindowAttention(
              (qkv): Linear(in_features=768, out_features=2304, dtype=float32)
              (attn_drop): Dropout(p=0.0, axis=None, mode=upscale_in_train)
              (proj): Linear(in_features=768, out_features=768, dtype=float32)
              (proj_drop): Dropout(p=0.0, axis=None, mode=upscale_in_train)
              (softmax): Softmax(axis=-1)
            )
            (drop_path): DropPath()
            (norm2): LayerNorm(normalized_shape=[768], epsilon=1e-05)
            (mlp): Mlp(
              (fc1): Linear(in_features=768, out_features=3072, dtype=float32)
              (act): GELU(approximate=False)
              (fc2): Linear(in_features=3072, out_features=768, dtype=float32)
              (drop): Dropout(p=0.0, axis=None, mode=upscale_in_train)
            )
          )
        )
      )
    )
    (norm0): LayerNorm(normalized_shape=[96], epsilon=1e-05)
    (norm1): LayerNorm(normalized_shape=[192], epsilon=1e-05)
    (norm2): LayerNorm(normalized_shape=[384], epsilon=1e-05)
    (norm3): LayerNorm(normalized_shape=[768], epsilon=1e-05)
  )
  (heads): LayerDict(
    (segmentation): MaskFormer(
      (loss): MaskFormerLoss(
        (matcher): HungarianMatcher()
      )
      (seghead): MaskFormerHead(
        (pixel_decoder): BasePixelDecoder(
          (lateral_convs): LayerList(
            (0): None
            (1): ConvNormAct(
              (_conv): Conv2D(384, 256, kernel_size=[1, 1], padding=same, data_format=NCHW)
…
